model/keypoint_classifier/keypoint_classifier.tflite (tflite, 6820 bytes, 6 tensors)

sequential/dense/BiasAdd/ReadVariableOp f4 [20]
000000 73 e0 1d 3f 05 54 66 bf b1 34 5a bf 4a 2a 37 bf
       0.6167061 -0.89971954 -0.8523665 -0.71548903
000010 6c a4 73 bf 99 c9 18 bf 5b 66 02 3e 44 ef ae be
       -0.9517276 -0.59682614 0.12734358 -0.3416692
000020 bb 48 71 bf e4 38 30 bf 22 cd f3 3d 0c 3c 20 bf
       -0.942516 -0.6883681 0.1190436 -0.62591624
000030 78 6e 0b bf 3a 1d 38 bf a2 91 22 bf 5c 6f de be
       -0.54465437 -0.71919596 -0.6350347 -0.43444335
000040 cc 59 03 bf 12 f9 d2 3e 54 c5 69 3f 3e 47 8c bf
       -0.51308894 0.4120565 0.91316724 -1.0959241

sequential/dense_2/BiasAdd/ReadVariableOp f4 [10]
000000 ae 86 11 bf 88 12 12 bf a7 99 f3 3e d3 79 78 be
       -0.5684613 -0.57059526 0.47578165 -0.24265222
000010 1d fc d7 3e 09 9b d4 3d 71 79 51 3f 38 f0 38 3f
       0.42184535 0.10381133 0.8182593 0.72241545
000020 40 86 38 bf fd bd 26 3f
       -0.7207985 0.6513365

sequential/dense_1/BiasAdd/ReadVariableOp f4 [10]
000000 08 ab 5e 3f 31 7b 8d bc 34 e7 0e 3f ea 3d e5 3c
       0.8697972 -0.017270656 0.5582154 0.027983624
000010 42 6e 3c 3e 81 4e d7 3e 64 78 fb 3e 35 85 33 3f
       0.18401435 0.4205208 0.49115288 0.7012513
000020 cd 19 0d 3f d3 f1 42 be
       0.55117494 -0.19037561

sequential/dense/MatMul f4 [20, 42]
000000 1c 25 57 be ce cc 35 be d5 88 4f 3c 50 8e 36 40
       -0.2101025 -0.17753908 0.012666901 2.852436
000010 d1 92 8f bd 89 1a 9f 3f a2 a4 2f bd de 89 38 3f
       -0.07010425 1.2429973 -0.042881615 0.7208537
000020 d2 91 d6 3c 7e ab 0b 3f c3 87 7f be 64 77 06 3e
       0.02619258 0.5455855 -0.24954133 0.13131481
000030 80 54 9f bd 66 ca 93 3e b9 41 a3 bc 87 08 a0 3e
       -0.07779789 0.28865355 -0.0199288 0.31256506
000040 5f 5b fd 3b 2c 0e a2 3e eb c1 8b be 03 5e 1a be
       0.0077318395 0.31651437 -0.27296385 -0.15074925
000050 53 2d 09 bd 91 cd 4e bc 8d db 10 bd 5f c7 00 3e
       -0.03349049 -0.012622253 -0.03536563 0.12576054
000060 ef f2 fb 3c 3a 27 6a 3e 1b 29 1d be e2 a6 b5 be
       0.030755488 0.22866526 -0.15347712 -0.35478884
000070 7b 1e fe 3b 66 48 b5 be 21 43 cc 3c 03 4c e2 bd
       0.0077550984 -0.35406798 0.024934353 -0.11049654
000080 56 18 94 3d 69 70 83 3d 45 e6 7c bd d2 7e d0 be
       0.07231204 0.06417925 -0.06174304 -0.40721756
000090 fa 18 61 3d 6c f8 d2 be 83 62 b3 3d 2a 12 0c bf
       0.05495546 -0.41205156 0.08759024 -0.54715216
0000a0 c5 56 11 3e 96 0a b9 be 80 59 96 3c 9a b5 82 3e
       0.14193256 -0.3614089 0.018353224 0.25529176
0000b0 b3 0a 32 be 2e 6a e7 be 65 10 02 bc 08 f2 b4 be
       -0.17386894 -0.45198196 -0.007938479 -0.35340905
0000c0 7b 78 0b 3d c0 ac d5 be 34 c4 30 3b 8c ca 70 be
       0.034050446 -0.4173336 0.0026972415 -0.23514766
0000d0 1e 93 80 3f f7 6a 46 be 44 63 c9 3e d5 83 0d 3e
       1.0044897 -0.19376741 0.39333546 0.13819821
0000e0 1e 49 57 bd 0d 5d 13 3e 17 ee 0d be 47 eb d5 3d
       -0.052559964 0.14390965 -0.13860355 0.10445266
0000f0 1f 58 70 3f a9 36 44 be 47 03 34 bb a9 03 e9 bc
       0.9388446 -0.19161476 -0.0027467774 -0.028444128
000100 dc fc 84 be e9 6f 7f 3d 9e 30 83 be 3a 73 6e 3d
       -0.25974166 0.062362585 -0.2562303 0.058215357
000110 3e af 4f 3f b5 9d 3d be 8c 02 ca bd 44 13 6b bd
       0.81126773 -0.18517192 -0.09863767 -0.05739142
000120 3c 59 75 be 66 ae a4 bc 53 9f 64 be 92 39 b4 bd
       -0.23959821 -0.02010269 -0.22326402 -0.08800043
000130 29 81 41 3f c2 12 2b 3c be 1c dd 3d 3d 8f 4d bc
       0.7558771 0.010441484 0.10796498 -0.012546358
000140 03 04 65 bd f3 f2 e9 3d 43 29 01 be f1 34 22 3e
       -0.05591203 0.11423292 -0.12613396 0.15840508
000150 a2 7c 3c be 15 45 1e be 75 ea 02 3f 29 f6 8c 3e
       -0.18406919 -0.1545604 0.51139003 0.27531555
000160 02 fa 8e 3e b0 50 8f 3e ba 49 2a 3e 6f 27 88 3e
       0.27925116 0.27991247 0.16629687 0.26592585
000170 68 5a 05 3e ec 3d 42 3e 6a 83 7c 3d 7c 82 df 3d
       0.13022768 0.18968934 0.061648764 0.1091356
000180 c5 48 2d bd 64 dc 3a bd af 2e c3 3c e3 cd 99 be
       -0.042305727 -0.045620337 0.023825971 -0.30039892
000190 3d a5 01 3e 1b b9 09 bf 77 23 8e 3b e0 7f a2 3d
       0.1266069 -0.53798074 0.004337724 0.079345465
0001a0 74 3b 3d bc 60 85 17 bc 81 22 43 3d 26 22 b9 be
       -0.011549819 -0.009248108 0.047640327 -0.36158866
0001b0 be 46 f0 3d 56 4b 31 bf 8d e5 bc bb 1c bf 6b 3e
       0.11732243 -0.6925558 -0.0057646693 0.23022121
0001c0 8c a4 15 bd d3 00 76 3c 0a 0f 89 3d 12 b0 0e bf
       -0.036533877 0.015014845 0.066923216 -0.5573741
0001d0 f2 a5 1e 3e 7c 93 26 bf d7 0e 5e 3b ee f8 d5 3e
       0.1549299 -0.65068793 0.0033883357 0.4179148
0001e0 67 ae 14 3d 39 2a 98 3e 91 09 a2 3d 20 63 30 3e
       0.036299136 0.29719713 0.07911981 0.17225313
0001f0 47 bb e7 3d 63 d6 83 3d d7 2c 2e be cc fe dc 3d
       0.11315017 0.064373754 -0.17009293 0.10790786
000200 a9 0f 0b be d8 ff 19 3e ed 2e 26 be c4 f2 ec 3d
       -0.13580193 0.15039003 -0.16228838 0.11569741
000210 44 e3 53 be a1 bb ee 3d 8c 6d 8f be 35 98 20 3e
       -0.20692164 0.11656881 -0.28013265 0.15683062
000220 25 96 6a 3c 78 df b2 3c 28 fe 1c bd 96 3c 19 3d
       0.014318024 0.021835074 -0.03832832 0.037411295
000230 f2 06 98 3d 40 56 86 3c 5f 14 8d 3e 97 74 d3 bb
       0.074232 0.01639855 0.27554604 -0.0064531076
000240 dc 98 17 ba 81 2b 5e 3d a6 2c d4 bd 56 73 03 3d
       -0.00057829707 0.054240707 -0.103600785 0.032092415
000250 90 cb a9 3d cd f6 13 3d 81 7d d8 3e fc 42 1c 3d
       0.082907796 0.03612404 0.42283252 0.03814982
000260 e0 f6 86 bd e6 1f c7 3c af db d7 bd 7f d9 81 3d
       -0.065900564 0.024307203 -0.10539948 0.06340312
000270 a4 c2 25 3e 23 d3 3f 3c a4 34 1a 3f 58 7d a1 bf
       0.16187531 0.011708054 0.60236573 -1.2616377
000280 24 27 28 be 72 5b 88 3c d9 fe e9 bd 9f b7 b8 3d
       -0.16421181 0.016645167 -0.114255615 0.09019398
000290 d5 49 75 3d 93 75 83 3d 8c 51 da 3e ab a6 1a bd
       0.059884865 0.0641891 0.4264034 -0.037756603
0002a0 bc f6 82 bd 0c 61 03 3e 4e f8 10 3f d7 d2 d0 3e
       -0.06394717 0.12829989 0.5662888 0.40785858
0002b0 e2 3f 8b 3e c5 03 aa 3e 71 fa 6d 3e 92 7e 9f 3e
       0.27197176 0.33206 0.23240067 0.31151253
0002c0 84 07 9d 3e a1 f7 6b 3e 1e 49 db 3d f8 71 d2 3c
       0.30669796 0.23043682 0.10707305 0.02568911
0002d0 d7 8b 2d bd d2 de cd 3d d5 cc 9d bd c2 8c bb bd
       -0.04236969 0.10052265 -0.07705084 -0.09157707
0002e0 05 ee d8 bd f4 8a cc be 21 16 e3 3d c5 0b 7e 3d
       -0.105922736 -0.39949763 0.11088205 0.062022943
0002f0 e6 20 98 bb c4 3e e5 3d 3e f1 f7 bd 7a 2d 23 be
       -0.0046425937 0.11193612 -0.1210656 -0.15935317
000300 b4 c9 77 be d2 20 2c bf ad 03 a3 3d d2 80 04 3e
       -0.24198037 -0.6723758 0.079596855 0.12939766
000310 73 4c b5 bd dc b2 df 3d b0 b2 7c be 14 d2 7c be
       -0.08852472 0.109227866 -0.24677539 -0.24689513
000320 63 a2 e9 be 72 0f 76 bf 94 17 a7 3d 5f 68 87 3e
       -0.45631704 -0.9611732 0.08158794 0.26446816
000330 a6 9d b6 bc 4d 05 60 3e 9b af 85 be c3 d6 3c 3d
       -0.02229197 0.21877022 -0.2611054 0.04610325
000340 85 5f f8 be ca 83 4a be a6 b5 86 3e cc ea a0 bd
       -0.48510376 -0.19776836 0.26310462 -0.07857284
000350 5b 23 55 bf 75 de 2b be b5 7c 0d bf 7e 63 2c 3d
       -0.83257073 -0.1678408 -0.5526841 0.04208707
000360 7a 70 3e be df 2f 82 3c 6c 3a 9a bb 7c e2 c7 3c
       -0.18597594 0.015891967 -0.0047066715 0.024399988
000370 f1 7a b4 be f1 a2 2e 3e 76 f0 69 be 15 d9 80 3d
       -0.35250047 0.17054345 -0.22845635 0.06291405
000380 28 4f 36 be a8 9a 0a 3e 50 77 e5 bd f6 a6 15 3e
       -0.17803633 0.13535559 -0.11204398 0.14614472
000390 00 7a 98 bd 55 e4 50 3e 46 74 60 3d b4 e1 6b be
       -0.07445145 0.20399602 0.054798387 -0.23035318
0003a0 2d bc 8e 3c 07 11 1b bf d0 96 40 3c b7 14 8e bf
       0.017423714 -0.60572857 0.0117547065 -1.1100072
0003b0 a4 bc 26 3e 93 b1 8e 3e 44 7c 0c 3e 9d db 65 be
       0.16282898 0.27869853 0.13719279 -0.22447057
0003c0 db 44 3e 3d 24 33 df be f3 b5 eb 3b 84 b0 eb be
       0.046452384 -0.43593705 0.007193321 -0.46033108
0003d0 94 28 ca 3e 81 1d 11 3f fd 3d 6f 3e be 26 97 3d
       0.39484084 0.56685644 0.2336349 0.07380436
0003e0 5f 4a 0d 3e 31 a2 e9 3d 75 f9 d9 3d 7b e4 0f 3e
       0.13797902 0.11407889 0.10643283 0.14052002
0003f0 d8 87 72 bd 10 8d b2 bc 92 a5 0b 3f 64 d6 83 3f
       -0.059211582 -0.02179578 0.54549515 1.0299802

sequential/dense_1/MatMul f4 [10, 20]
000000 0a b9 55 bd e8 96 58 3f 95 32 46 3e 55 e6 5d bf
       -0.05217842 0.84605265 0.19355233 -0.86679584
000010 5e 7f ab 3e 4f 29 c2 bf 56 87 8a 3e 88 34 9b bf
       0.3349561 -1.5168856 0.27056378 -1.2125406
000020 0c 33 96 bf 37 73 62 be 62 8c 86 be a1 25 f8 bd
       -1.1734328 -0.22114263 -0.2627898 -0.12116552
000030 e0 1f 5c 3f 1d 06 69 3e 31 92 f6 3d 44 08 dc 3d
       0.8598614 0.22756238 0.120396025 0.10743764
000040 9c 78 c8 bd 4f 65 43 3f 2b 2d fd 3e 56 8e d7 bf
       -0.097886294 0.7632646 0.49448523 -1.6840312
000050 5f 5e ad 3f 8d 51 38 3e 06 1b a8 3f f4 a1 cb 3e
       1.3544425 0.17999859 1.3133247 0.39771998
000060 20 b8 c1 3e a9 c7 c1 3e 5a 8f a3 3f c7 da 41 3f
       0.3783579 0.3784764 1.2778122 0.7572445
000070 eb 13 91 3f 48 e7 86 3f 54 2d 5d 3f 43 c6 f9 3f
       1.1334203 1.0539331 0.8639729 1.951363
000080 93 3d 9e bf 59 54 21 3e bb 7b a8 bb ea fc 01 3e
       -1.2362541 0.15754832 -0.005141703 0.12694135
000090 b2 37 75 3f 7a c5 33 3f d0 7b 6b 3f 4a bf 74 3e
       0.9578811 0.702232 0.919858 0.23901096
0000a0 d3 f6 d0 bf a7 fe 29 3e 7f 4c 03 3f e4 db 44 be
       -1.6325325 0.16601048 0.512886 -0.19224507
0000b0 42 d6 d5 3d 47 0b 06 bd 38 6f 4c bf bc 5f 5f 3f
       0.10441257 -0.0327256 -0.79857206 0.87255454
0000c0 d7 25 c0 3e 20 3a f6 3d b9 e3 1e 3f 21 75 82 3e
       0.3752887 0.12022805 0.6206623 0.25479987
0000d0 d1 ce 82 be fa e9 63 3e c2 93 68 bd f8 60 e3 3e
       -0.25548413 0.22257224 -0.056781538 0.4440992
0000e0 8d e9 a2 3c a7 9c 40 3e 50 5d b3 bf bf 29 84 3f
       0.019886756 0.18809758 -1.4012852 1.032524
0000f0 9e fb d0 3e 95 85 03 3f 95 e6 62 be 8c bb 30 bf
       0.4081697 0.51375705 -0.22158273 -0.69036174
000100 8e 74 ef be 57 4c 96 3e 66 db fd 3e 21 c8 dc bd
       -0.46768612 0.29355118 0.4958145 -0.10780359
000110 76 c6 da 3e e5 7a f0 3e b0 c5 50 be d6 11 a8 3d
       0.4272954 0.4696876 -0.20387912 0.08206527
000120 51 60 95 3f 3a 8f 80 bf ab f5 3d bf 77 fa 0f bf
       1.1670018 -1.0043709 -0.74202985 -0.56241554
000130 fa 89 fa 3e cf 1c 61 3d 9a 5b 15 3f 6a c8 25 3f
       0.48933393 0.054959115 0.583429 0.6475893
000140 24 7a b9 3e db a6 95 bf 18 32 f9 3e fd e8 6e be
       0.36225998 -1.1691545 0.4867103 -0.23331065
000150 02 bd 31 3e da 9f 09 3f d6 0e 12 3f 1b 47 e8 be
       0.17357257 0.5375954 0.5705389 -0.4536675
000160 e9 c5 c2 3e 65 07 28 3f a4 da 23 bf ec eb 38 be
       0.38041618 0.65636283 -0.64005494 -0.18058747
000170 a3 3a bf be f3 a2 84 be 26 b9 50 bf 50 0e 99 be
       -0.37349424 -0.2590557 -0.81532514 -0.29893732
000180 f3 04 22 3f ba 8b cc be 31 33 38 3f f2 99 63 bf
       0.632888 -0.39950353 0.7195311 -0.88906777
000190 e7 a8 a4 be 1a 3a 11 3f 7c 28 cf 3e 18 a9 a5 bc
       -0.32160112 0.5672928 0.40460575 -0.020222232
0001a0 3a aa a9 3e bb 05 e2 3e 5a c7 28 3f 31 73 4d 3e
       0.33137685 0.44144997 0.65929186 0.20063473
0001b0 8d d4 86 3e 48 8c 27 bf 13 6b 15 3d 18 a3 07 3e
       0.26334038 -0.6544843 0.036479067 0.13245809
0001c0 91 e8 58 3f 03 f0 47 3e 22 a4 cb 3e 4b 26 81 3d
       0.8472987 0.19525151 0.3977366 0.06306132
0001d0 32 fa 00 3e a0 31 33 bf ed 94 7b be 08 3a 72 3f
       0.12595442 -0.69997597 -0.2456853 0.946198
0001e0 3c 54 a0 3e 1d 8f 9c 3e 12 34 1c be 77 2a 20 3f
       0.31314266 0.30577937 -0.15254238 0.62564796
0001f0 98 52 6d 3f 97 46 2f bd c4 3a 90 3f ad e4 13 3f
       0.92704153 -0.04279193 1.1267934 0.57770807
000200 02 11 87 be 37 17 cf 3e 0c a2 2d 3f 4c c2 50 be
       -0.26380163 0.404474 0.6782539 -0.20386618
000210 33 94 8c be 42 60 36 3f d8 94 7d 3f 74 0b 15 3f
       -0.27456817 0.7124063 0.9905524 0.582206
000220 5e 47 b1 bd b3 e5 c1 3e 65 f0 57 3e 11 80 8b 3e
       -0.0865619 0.3787056 0.21087797 0.27246144
000230 67 ef c6 3e 84 61 98 bd 08 2e e7 bc e9 a2 01 bd
       0.38854524 -0.07440475 -0.028220192 -0.031649504
000240 c3 6f 34 3e 11 f5 fc 3e 64 99 02 3f 16 ab d8 3e
       0.17620759 0.4940572 0.51015306 0.42318028
000250 c2 c8 07 be 62 c3 a3 3c 82 7b 71 3f 1c 86 8f 3b
       -0.13260177 0.019990627 0.9432908 0.0043800008
000260 2f 52 6f 3e fc ba 9b 3c ef 8f d6 bd 1d 1b df 3c
       0.23371194 0.01901006 -0.10476672 0.027234608
000270 11 1e 11 bf c2 2c 75 be 1e b4 58 bf ff 6e b0 3e
       -0.566865 -0.23942855 -0.84649837 0.34459683
000280 90 32 0e 3c 18 42 aa 3d 93 fd 78 3f 21 f2 ad 3f
       0.008679047 0.08313388 0.97261924 1.3589517
000290 31 fe 88 3f 4c b4 2f 3f 42 0d d6 be 67 cc ed be
       1.0702573 0.68634486 -0.4180699 -0.4644501
0002a0 09 c2 e0 3e 76 a6 3f be cf 8f 67 bf 1c 4e f7 be
       0.43898037 -0.18715844 -0.9045381 -0.4830178
0002b0 87 89 aa be f0 39 e5 3e d2 13 31 3e 93 93 ee 3e
       -0.3330805 0.44770765 0.17292717 0.46596965
0002c0 ec 9b 2b 3f 87 93 1b be ec ba bb 3e 12 29 c0 be
       0.6703479 -0.15192996 0.36666048 -0.37531334
0002d0 11 4e 6a be 56 49 1b 3f f8 f3 5a bf ad 54 b1 bf
       -0.22881342 0.60658777 -0.85528517 -1.3853966
0002e0 7e 8d 11 3f bf 90 cb 3e ad 6c 21 be 6b 05 ac 3e
       0.56856525 0.3975887 -0.15764113 0.33597884
0002f0 85 ae 01 bd e3 d9 34 3f a4 8b 33 3c e6 eb 30 bf
       -0.031660575 0.7064497 0.010958586 -0.6910995
000300 d8 c7 17 3f de 32 d7 3e 91 09 e3 be db ea 12 3f
       0.5928931 0.42030996 -0.44343236 0.5738961
000310 3e 0f ad bd 59 9c ca be 39 2c 9c bd b7 db 17 3f
       -0.08450173 -0.3957241 -0.07625622 0.59319633

sequential/dense_2/MatMul f4 [10, 10]
000000 3b fe db be 62 aa 8f 3e 05 de 20 3e 89 54 15 bf
       -0.429674 0.2805968 0.15709694 -0.58332115
000010 93 7b 40 3f 27 74 02 bf 06 82 3f 3f 9e 5e 05 3f
       0.7518856 -0.50958484 0.74807775 0.520975
000020 4b 98 a4 3e ee 54 94 bf dc ad 9c 3d f8 ca 10 3f
       0.3214744 -1.1588418 0.076503485 0.56559706
000030 d2 3d 38 3e 44 d2 22 3f e6 e2 df bd 47 90 cb 3e
       0.17992333 0.6360209 -0.10931949 0.39758512
000040 49 43 4c be ce b9 f6 3e ab 95 08 bf 69 9a 49 be
       -0.19947542 0.48188633 -0.53353375 -0.19687809
000050 28 5e 8f be f3 aa 7f 3e 40 c9 06 bf 8c ad 87 3f
       -0.28001523 0.24967556 -0.52650833 1.0599837
000060 16 11 fe 3e bf 1f 0c bf 48 bf a0 bf 4a ef e9 3e
       0.4962241 -0.5473594 -1.2558374 0.45690376
000070 81 bd 29 bf 90 f2 89 bf 3a b7 39 3f 47 e5 7c bf
       -0.66304785 -1.0777149 0.72545207 -0.9878735
000080 fa 1a 2c 3f 5a ee ba be ce c3 dd bf 53 36 de 3d
       0.6722866 -0.36509973 -1.732538 0.10850205
000090 92 14 08 3f 69 66 9b 3e 53 68 fd bf 7f 19 61 3e
       0.5315639 0.3035157 -1.9797462 0.21982382
0000a0 1d 2f c0 be b3 28 1d 3f 1b 64 70 3f 12 ab b6 be
       -0.37535945 0.6139023 0.9390275 -0.3567739
0000b0 12 98 bd be 12 fc c9 be ec 50 30 bf 13 40 d4 be
       -0.37030083 -0.39450127 -0.68873477 -0.41455135
0000c0 c0 28 02 bf e9 df 3b 3e cd 9b 2c bf 6f aa 6f 3f
       -0.5084343 0.18347134 -0.67425233 0.93619436
0000d0 d2 c6 89 bf 32 87 72 bf 54 d1 fe be d1 be 38 bf
       -1.07638 -0.9473754 -0.4976908 -0.7216616
0000e0 75 71 74 be a2 e3 47 bf 49 92 8f 3e 80 66 23 3f
       -0.23871405 -0.78081715 0.28041294 0.6382828
0000f0 77 cf a1 3f 07 7b a0 bf 2a a5 6a bf 64 f7 24 bf
       1.2641438 -1.2537545 -0.9165827 -0.6443999
000100 7e 45 1e bf df 64 29 bf 60 63 c1 3e 46 7a 27 bf
       -0.61824787 -0.6616954 0.3777113 -0.6542095
000110 3e ed 40 3d 58 d2 ea 3e de 2f 5f bf 75 12 c8 bf
       0.04710125 0.45863605 -0.87182415 -1.5630633
000120 f0 b0 16 bf 42 f1 d2 be 60 4b 2b be 86 fb 4a 3e
       -0.58863735 -0.4119969 -0.16727972 0.19822511
000130 6f fc 24 3f d9 4a 0d be bc 52 67 3f 84 fe d1 be
       0.64447683 -0.13798083 0.9036062 -0.41014493
000140 59 bf 11 bf b7 0f 57 be a1 f9 82 be 73 71 4e bf
       -0.569326 -0.21002088 -0.25581077 -0.8064186
000150 1a 3d 26 bf fd 46 a7 3f 97 79 63 be 03 7d 62 bf
       -0.64936984 1.3068539 -0.22214352 -0.88472
000160 7a a6 7a 3f 19 ae b4 be 1f 6c 20 be 7d 2e cb be
       0.97910273 -0.35289076 -0.15666245 -0.39683905
000170 2a 1f 3b bf ef 0c c0 be fc 0a 88 3f ce cc 04 3f
       -0.7309443 -0.37509868 1.0628352 0.5187501
000180 2a 06 06 c0 c7 33 e3 3e 11 70 ec 3d 3e 59 8f bf
       -2.0941262 0.4437544 0.115448125 -1.119911
